model.tflite (tflite, 29264 bytes, 6 tensors)

arith.constant f4 [19, 44]
000000 e0 ba 6a bf 4b c2 c5 3d c9 a4 12 3e e8 76 6b be
       -0.916914 0.09656199 0.14320673 -0.22994578
000010 b1 2e 99 be 1e e4 b1 be ba 93 8f be 96 cb 06 be
       -0.29918435 -0.34744352 -0.28042394 -0.131636
000020 c6 eb e9 3e 79 22 03 bf a5 b5 03 bf 41 22 5c 3f
       0.45687693 -0.51224476 -0.5144904 0.8598977
000030 56 63 77 bf 3e d6 be bd b0 80 84 be 46 e3 60 bf
       -0.9663595 -0.09318207 -0.2587943 -0.8784679
000040 47 17 79 bf 75 f2 d2 bd bb 17 53 be f0 01 95 be
       -0.97301143 -0.10300151 -0.20614521 -0.2910304
000050 25 25 fe 3e a1 d7 bf 3e 23 55 f3 3e 51 47 4e 3d
       0.49637714 0.374692 0.47525892 0.05036098
000060 81 53 24 bd 7e 63 57 3f 44 a7 24 bf 9d c4 79 be
       -0.040118698 0.8413619 -0.6431773 -0.24391408
000070 23 c3 9c 3e 04 85 54 be 80 0f 04 3f e5 f6 e8 3e
       0.30617628 -0.20753866 0.5158615 0.45500866
000080 f6 1b 2d 3f 44 6f fb 3d 5b 30 35 bf dc 4b b9 be
       0.6762079 0.122770816 -0.7077691 -0.3619069
000090 ae 2a 8d bd 34 5d a1 be 9b b8 ae be 75 1d a3 be
       -0.06892906 -0.3151642 -0.34125218 -0.3185841
0000a0 a6 34 af be 42 96 af be 3c 89 45 be be e3 19 bf
       -0.34219855 -0.34294325 -0.19290632 -0.6011313
0000b0 bc f4 f6 3e d9 8d d0 3c 22 fa 5c 3e f4 07 0e 3e
       0.48233593 0.025458263 0.21579793 0.13870221
0000c0 60 52 9d be 46 25 2e 3f 91 3d b6 be fe 06 70 be
       -0.3072691 0.68025625 -0.35593846 -0.23440167
0000d0 8f f1 f1 3e de ab 05 3e 76 cb 41 3e 9f c1 3a 3f
       0.47254607 0.13053843 0.1892527 0.7295169
0000e0 66 91 8f bf 4a f3 0e be 3e 55 f6 be 8e 3b 51 be
       -1.1216247 -0.13959995 -0.4811191 -0.20432875
0000f0 04 64 d7 be 00 2d 4f 3e a6 a0 fb 3d 4c 34 61 3e
       -0.42068493 0.2023201 0.12286501 0.21992606
000100 5e 0a a8 3e 2e c3 3a 3f 9a c5 7f bd 67 06 0b 3e
       0.3282041 0.7295407 -0.062444307 0.13576661
000110 d6 87 9d be 9f 1e 01 bf c3 43 07 3f 46 2d 12 be
       -0.30767697 -0.5043735 0.5283777 -0.14275083
000120 47 3b c0 3e ad cf a1 be ab 17 b8 be 76 4c 1c be
       0.37545225 -0.31603757 -0.35955557 -0.15263543
000130 8e b4 30 be 85 1b b5 bf 47 ad e7 be c9 34 63 be
       -0.17256376 -1.4149023 -0.45249388 -0.22188105
000140 89 f5 4e be 7e 53 c5 bd f2 85 52 3f 29 c8 1e 3d
       -0.20210852 -0.096350655 0.82235634 0.038765106
000150 e0 97 3f be 34 f0 17 3e 0c 67 a3 bf c1 d7 b7 bf
       -0.1871028 0.14837724 -1.2765822 -1.4362718
000160 95 59 c1 bf 73 6d 97 be f0 fd 38 3e cd d2 06 be
       -1.5105463 -0.2957569 0.1806562 -0.13166352
000170 92 f2 f8 3d 1a f5 77 be 4b 22 c9 3d 41 cb db 3b
       0.121556416 -0.24214593 0.09820994 0.0067075794
000180 59 11 10 3f fb 58 8f 3e c3 d6 76 bf e8 d4 18 3d
       0.5627647 0.27997574 -0.9642145 0.03731242
000190 25 85 ae bf 39 c5 70 be fe 83 9f bf 15 b3 59 3e
       -1.3634382 -0.23512734 -1.2462156 0.2125972
0001a0 06 4f ea 3d 9b 8d b0 3d 1b 8b c7 3c 11 c8 71 3e
       0.11440854 0.08620759 0.024358323 0.23611476
0001b0 4b d0 21 3e 3f 47 82 3f 56 79 83 bf 89 a3 7f bd
       0.15802114 1.0177993 -1.0271404 -0.06241182
0001c0 bb bb 0f 3e 0d c6 9a be be 06 a0 3e d4 27 2c be
       0.14036457 -0.30229226 0.31255144 -0.16812068
0001d0 86 05 6d bd 8c 07 46 be 4c a1 6f 3d 0e 7b bd be
       -0.057866596 -0.19338816 0.058503434 -0.37007946
0001e0 e9 d4 1c bf 60 7d df 3e fa 9a d6 3e 29 6a df 3d
       -0.61262375 0.4365034 0.41915113 0.1090892
0001f0 a8 37 9e 3e 3e b4 84 3a 08 1b eb be 5e 16 91 3d
       0.30901837 0.0010124517 -0.4591906 0.07084344
000200 a3 ac ac 3c 2b 45 85 bd 16 c8 31 be c0 8b d8 3e
       0.021078413 -0.06507333 -0.17361483 0.4229412
000210 d0 dc 00 bc c5 e2 7d 3d 00 c4 be bd 48 85 c4 3c
       -0.007865146 0.061983842 -0.09314728 0.023989335
000220 cc a7 4c 3d 24 21 2f bf 4a e4 42 3e 0a ff b0 bd
       0.04996471 -0.68409944 0.19032398 -0.08642395
000230 b9 24 cc 3f 4c cb ef be b9 69 5b bf 9e d5 4b bf
       1.5948707 -0.4683479 -0.85708195 -0.7962283
000240 10 ae 56 bf 8a a5 54 be d8 af 1d 3f f2 9b e4 be
       -0.8385935 -0.20766273 0.6159644 -0.44650227
000250 87 b5 4f 3f ac 1a 4a bd 63 87 46 3e 6b 32 9f be
       0.81136364 -0.049341843 0.19387583 -0.31093153
000260 48 79 c1 3e 5b 33 09 be d2 e3 e9 bd 94 4a cb 3d
       0.37787843 -0.13398497 -0.114204064 0.09926334
000270 ba d3 13 3e 5d d8 5a 3f 7e fa b3 be a9 5b 08 be
       0.14436236 0.85486394 -0.35152048 -0.13316216
000280 8f d3 2f bf e6 4b 76 be ed 0a 9b be eb ae 35 bf
       -0.6868219 -0.2405239 -0.30281773 -0.7097003
000290 80 f8 f5 3c 5c 91 07 bf 68 12 01 be 63 67 a3 bc
       0.03002572 -0.52956176 -0.12604678 -0.01994676
0002a0 5b de 78 3e b8 d8 fc bd a0 56 33 3f 4c 84 77 3d
       0.24303572 -0.12346023 0.70054054 0.060428903
0002b0 7a 61 16 be fe 14 57 3e 90 9a 86 bf c7 3d b5 3e
       -0.14685622 0.21004102 -1.0515919 0.35398695
0002c0 77 66 06 c0 42 be 7b 3e 1a 72 8b bd f8 d0 a5 3d
       -2.100004 0.24584296 -0.068088725 0.08096498
0002d0 b7 77 c1 3c d4 20 ec 3e 2a 53 90 be 58 30 0f bd
       0.023616655 0.46118796 -0.2818845 -0.034958214
0002e0 9b fd 40 3d d9 da ab bf 3e 1b 51 bf 4b 47 d6 3f
       0.047116857 -1.3426162 -0.81682193 1.6740507
0002f0 b9 ce b0 be 5e df cd 3c 6b 4c 20 bf 9e 62 18 3f
       -0.34532717 0.025130924 -0.62616605 0.5952548
000300 98 65 0b bd 12 e3 58 3e 8f 6c 6b 3e dc 14 63 3e
       -0.034032434 0.2118037 0.2299063 0.22175926
000310 57 f6 92 bf c0 a0 bb 3e 98 da 5d bf 8b 4f 9c 3c
       -1.1481427 0.3664608 -0.8666167 0.019080898
000320 86 b3 8c bd 10 f3 25 3f 2c fc b9 3c 93 89 05 3e
       -0.06870179 0.6482401 0.022703253 0.13040762
000330 99 2a a8 bf 3c 63 44 3d bd f0 37 bf a2 44 d4 3e
       -1.3138 0.0479462 -0.7185171 0.41458613
000340 c0 45 de bb d2 51 17 bf 5d 76 5d 3e 19 38 f3 3d
       -0.006783217 -0.5910922 0.21627183 0.11875934
000350 b2 9d 65 be b1 3f f3 bc 5a 01 07 3f aa 20 60 3e
       -0.22423437 -0.029693456 0.5273644 0.2188746
000360 15 56 09 be 50 49 09 3e d2 d9 0b bf a7 6d 3b bf
       -0.13411744 0.13406873 -0.5462924 -0.7321419
000370 4b 19 8d 3f e1 c5 8c be 5f 6b 23 bd 83 4e 08 be
       1.1023344 -0.2749472 -0.03989732 -0.133112
000380 3b 9a 6e 3e 79 59 71 bf 84 4b c3 3d bf d2 7b be
       0.23301022 -0.9427715 0.09535888 -0.24592112
000390 4e 63 8f 3f 33 e9 61 3f 8e 67 69 bd bb e9 db 3e
       1.120218 0.8824646 -0.056983523 0.4295176
0003a0 2d 82 17 bf bc f0 1e bd c5 9e 27 be f4 13 e6 3e
       -0.5918301 -0.0388038 -0.1636916 0.44937098
0003b0 df ee 02 bf a1 a9 2b 3e cc 50 92 be 56 f3 cb 3d
       -0.5114574 0.16763927 -0.28577268 0.09958522
0003c0 db b9 32 bf da 58 da 3d 67 72 69 3e f1 39 37 3c
       -0.6981484 0.10661478 0.22797547 0.011183248
0003d0 a6 b9 93 3e 55 c9 0f bf 31 45 10 bf fa 81 27 bc
       0.28852576 -0.56166583 -0.5635558 -0.01022386
0003e0 d2 71 ff 3d c2 3a 9a 3d 35 85 30 bf c2 d7 e0 3d
       0.124728814 0.075307384 -0.6895326 0.109786525
0003f0 54 fa ba be 21 b6 93 3e 28 7c 89 be be 40 a8 3d
       -0.3651911 0.2884989 -0.26852536 0.082154736

arith.constant1 f4 [44, 88]
000000 f8 13 58 3d 06 dc a9 3e 8d b0 72 bd f9 c6 ae be
       0.05275342 0.33175677 -0.059250403 -0.3413618
000010 d9 a3 3b 3e 19 91 52 bd 33 67 cb 3e 26 09 94 bd
       0.18324222 -0.051407907 0.39727172 -0.072283074
000020 7a 41 29 3f 24 10 0a be dd b9 83 3e 5d 8e 0b bc
       0.66115534 -0.1348272 0.2572774 -0.008517829
000030 98 4d cc 3f a4 f1 b4 3d 92 d9 2b 3e 99 d4 48 3f
       1.596118 0.08835152 0.16782215 0.784494
000040 05 4b 04 c0 fe 8a 5a bf 55 e1 3d 3d 0c 21 65 bf
       -2.0670788 -0.85368335 0.04635747 -0.8950355
000050 5f 90 ed bf 86 8e 9c 3f 97 e2 28 c0 3f a6 da bf
       -1.8559684 1.2230995 -2.63883 -1.7081984
000060 e5 5e 1c 3f 3f bd 1c 3e 80 36 17 3f 90 ec 28 3f
       0.610823 0.15306567 0.59067535 0.65985966
000070 37 15 8f be 8d b6 f5 be 78 ac 87 3e 25 ac 1e 3f
       -0.27945873 -0.47990838 0.2649877 0.6198142
000080 ae 5e 37 3e 62 53 c1 be df 58 42 3f a0 93 d4 be
       0.17907211 -0.3775893 0.75916857 -0.4151888
000090 4c 65 40 3e f2 d3 cc bf f1 e7 d7 3e 38 a0 57 3e
       0.18788642 -1.600218 0.42169145 0.21057212
0000a0 e0 c3 f8 3d 1c 2d cd 3d d4 4e eb be 8b f3 83 be
       0.12146735 0.100183696 -0.4595858 -0.25771746
0000b0 97 ae 6a bf f5 43 c7 3e ce 95 14 c0 af cb c0 bd
       -0.9167265 0.38919035 -2.3216434 -0.094138496
0000c0 8c 06 c4 3e fd 3e 12 be cf b2 15 bf 58 f0 2e bf
       0.38286245 -0.1428184 -0.58475965 -0.68335485
0000d0 61 eb 1c 40 e2 e9 13 bf 32 db 07 3f 31 d7 4d 3f
       2.4518664 -0.5777875 0.5306884 0.8040648
0000e0 23 51 6f 3d 0b 30 80 be 92 df e0 bd 6f 4f da bf
       0.058426987 -0.25036654 -0.10980143 -1.7055491
0000f0 05 1e 22 3f 07 61 e0 bf 1c f9 d2 3e ef 32 c8 bf
       0.63327056 -1.752961 0.4120568 -1.5640544
000100 c7 df b9 bf ec 1f 79 3e 70 27 73 3d eb 9d 0d bf
       -1.4521416 0.24328583 0.059363782 -0.5531909
000110 6a 6d a2 bf a2 44 41 bf a2 ba a2 bf a7 9c 41 3e
       -1.268964 -0.7549535 -1.2713206 0.18907414
000120 42 9c e2 be db 7a 82 bf a7 bf 08 3f fb af e1 bd
       -0.4425984 -1.0193743 0.5341744 -0.11019894
000130 15 6c a9 bf fa 06 0d 3f 81 25 a0 bf 9d 46 82 3f
       -1.3236109 0.5508877 -1.2511445 1.01778
000140 9a cc fc 3e 61 56 d1 bd 78 85 93 bf 9c f5 9f bf
       0.4937485 -0.102215536 -1.1525106 -1.2496829
000150 8f 7e be 3d 2a e2 22 3f a5 87 76 3e 42 15 c9 bf
       0.09301483 0.6362635 0.24075182 -1.5709612
000160 f4 c7 7c be 5c 8e cd 3d fb d7 a7 3d 1c 8b 06 be
       -0.24685651 0.100369185 0.08195492 -0.13139004
000170 9b 66 2c 3d e1 85 32 3d 26 d2 38 bd 3f 76 34 be
       0.04209004 0.043584708 -0.04512229 -0.17623232
000180 eb 70 30 bd f7 a2 0e bd 29 08 3a 3c b5 0a 55 3d
       -0.043076437 -0.034823384 0.011354485 0.052012164
000190 90 4e e9 3c 97 06 82 be bd 09 59 be ed 73 33 3d
       0.028479844 -0.25395653 -0.21195121 0.043811727
0001a0 81 8a d4 bc 36 8f d8 bd e5 c7 41 bd 54 df d6 3b
       -0.02594495 -0.1057419 -0.047309775 0.0065573845
0001b0 07 a5 8c be 89 9f f3 3d 4c ef 1d 3e fc 14 0f 3d
       -0.27469656 0.11895663 0.15423316 0.03493212
0001c0 8a 23 08 be 73 8f 58 3d 59 f2 5a bd da 44 68 be
       -0.13294807 0.05287118 -0.053453777 -0.22682515
0001d0 a5 9d 02 3e a0 47 39 be 6c a3 b2 bd 26 dd be bc
       0.12755449 -0.18093729 -0.087225765 -0.023298811
0001e0 77 96 06 be dd 71 67 be 4e 84 d0 3c 71 bd 5f be
       -0.13143335 -0.22602029 0.025453713 -0.2184961
0001f0 cc 9f 85 be a3 3d c1 3d 0f a8 fb bd 39 8f 05 3e
       -0.26098478 0.094355844 -0.12287914 0.13042916
000200 69 22 f9 3d b1 56 56 be cc ba 48 3d 51 8a 84 3d
       0.12164766 -0.20931508 0.04900627 0.06471694
000210 96 da 28 bd 43 42 8b be 41 6b cc 3d b5 64 60 bc
       -0.041224085 -0.2719899 0.099813946 -0.013695885
000220 47 46 16 3e a9 d3 b4 bd 2f 26 fb 3d a7 3e fe 3c
       0.14675246 -0.088294335 0.12263142 0.031035734
000230 1a 47 6e be a4 82 4c be 9e e6 e4 3d b8 6b 8b be
       -0.2326931 -0.1997171 0.11176799 -0.2723062
000240 14 fd ec 3c dd 45 38 be 30 0a 8c be a1 f2 07 be
       0.02892927 -0.179954 -0.27351522 -0.1327615
000250 2b c0 d2 bd 4c 78 7b be e1 89 bb bd 0f 92 f1 3d
       -0.102905594 -0.24557608 -0.09157158 0.117954366
000260 a4 4f 1c 3e cc 35 48 3d 85 43 cd 3d 56 90 68 be
       0.15264755 0.04887943 0.10022644 -0.2271131
000270 3f 6e 8e be 83 29 c9 3c f2 4e 82 be 64 3c 2c bc
       -0.27818486 0.024555927 -0.25450855 -0.010512445
000280 e9 bc 2a be 0e 44 d6 3c f7 7f 6f be 62 2f 08 3e
       -0.16673626 0.026155498 -0.23388658 0.13299325
000290 4a 0d 62 be 0d 92 c0 bc 70 64 0e 3e 70 3f 92 be
       -0.22075382 -0.023507142 0.13905501 -0.28564024
0002a0 22 09 97 3d e0 ae 69 be 81 27 51 be 26 63 53 bd
       0.07374789 -0.22820616 -0.20425226 -0.051608227
0002b0 9e a0 83 be 57 61 af bd ff 73 a9 3c d0 c9 85 bd
       -0.2570848 -0.08563488 0.020685194 -0.06532633
0002c0 e5 3f d6 3d f5 2b 87 be 24 69 49 be f0 2e 24 3e
       0.10461406 -0.26400724 -0.19669014 0.1603353
0002d0 08 e9 f9 3d 64 8d 2a be 1a 96 c9 3d 2d cc bb bd
       0.1220265 -0.16655499 0.09843083 -0.09169803
0002e0 a4 68 1a bd 5c 50 4e be 58 0e 21 be 6e 24 8f bd
       -0.03769745 -0.20147842 -0.15728128 -0.0698937
0002f0 80 30 2f bc 36 6b 9f bd 00 a5 70 bc 6c 69 4b 3d
       -0.010692716 -0.07784121 -0.014687777 0.049661085
000300 24 53 6c be 4a 48 df 3d 00 f0 c8 bc 16 48 62 be
       -0.2307859 0.1090246 -0.024528503 -0.22097811
000310 53 c0 7c 3d dc ac 87 3d 93 f4 03 be 5c 22 15 be
       0.061706852 0.06624767 -0.12886266 -0.14563888
000320 df c3 c6 bd 4c 42 a0 bd 26 57 95 3d 34 5d 29 be
       -0.09705328 -0.07825145 0.07292013 -0.1653946
000330 d8 b6 83 be 00 fc 67 bd 43 eb f9 3c 4d 39 ad bd
       -0.25725436 -0.05663681 0.03050769 -0.08458195
000340 f4 be 04 be 2a ab 1e be 44 5c 13 be b4 47 7d bd
       -0.12963468 -0.15494981 -0.14390665 -0.06183596
000350 a0 55 3c be f0 c1 e0 3d e0 f4 ae 3d 4a d8 35 be
       -0.18392038 0.10974491 0.085428 -0.17758289
000360 f4 36 07 3e 74 c0 c8 3d 1c f0 20 3e dd 1d 16 be
       0.13204557 0.098023325 0.15716594 -0.1465983
000370 5a c4 47 3e 1a e4 f9 3c dc 57 59 be de cc ef 3d
       0.19508496 0.030504275 -0.21224922 0.11708997
000380 5b da 2d be 40 cf 20 bd 1b 9a 03 be c2 de d4 bd
       -0.16977827 -0.03926015 -0.12851755 -0.1039405
000390 88 9f 9d bc 30 aa de bc a5 c3 e8 bd dc 44 09 bd
       -0.01924111 -0.027180761 -0.11365441 -0.033512935
0003a0 fb 09 e2 bd 6a 0b f8 bd 14 91 7d 3c 78 61 6d 3d
       -0.1103706 -0.12111552 0.015476484 0.05795428
0003b0 37 d9 72 be 49 b6 d2 3d a3 f5 ec bd ee 90 10 3e
       -0.23715673 0.102886744 -0.11570289 0.14117786
0003c0 5d 65 d6 bb 54 dd d2 bd f4 bf a5 bd 3e 34 97 bd
       -0.006542845 -0.10296121 -0.08093253 -0.07383011
0003d0 c1 19 62 be 35 24 61 be 4f bf ff 3c ec 84 28 3d
       -0.22080137 -0.21986468 0.031219153 0.04114239
0003e0 56 18 85 be 72 ee 8f 3d 57 2c ed 3d 60 ae 6c bc
       -0.2599513 0.07027902 0.11580723 -0.014445871
0003f0 bf 32 29 be 65 10 45 be e3 f9 20 be 49 09 6c be
       -0.16523264 -0.19244535 -0.15720324 -0.23050417

arith.constant2 f4 [19]
000000 21 6a e1 3e be 11 7d 3e 5a d7 dd 3e 44 d4 07 3d
       0.44026282 0.247138 0.43328363 0.033161417
000010 1c 0f fe 3e 77 ad ae 3e 42 7c b6 3d 7e 3d 9a 3e
       0.49620903 0.34116718 0.08910419 0.3012504
000020 af 2f ed 3e f0 93 3f be 72 f7 2e 3e 40 28 9b 3e
       0.46325442 -0.18708777 0.1708658 0.30304146
000030 03 63 b2 3e 51 98 31 be f4 c6 88 bd 55 c9 3c 3e
       0.34841165 -0.1734326 -0.06678572 0.18436177
000040 49 0a b2 3e 70 e5 ff 3d 3c b0 0e bf
       0.34773472 0.124949336 -0.5573766

arith.constant3 f4 [44]
000000 0a 26 a5 be 29 1f 8d bd 09 f8 62 bd e9 16 8a bd
       -0.32255584 -0.06890709 -0.055412326 -0.06742651
000010 13 55 87 bd eb ee e2 3c 90 b5 72 bd 43 f0 89 bd
       -0.066080235 0.027701816 -0.059255183 -0.067352794
000020 54 15 82 3f b8 5b 80 be a1 e3 ae 3d 47 07 96 3f
       1.0162759 -0.25069976 0.085395105 1.1720971
000030 23 32 13 bf 71 d3 8a bd f3 36 bf be 73 ec c8 bd
       -0.5749838 -0.067786105 -0.3734661 -0.09810724
000040 c0 49 49 be 74 46 42 be 83 28 9e bd d2 d2 75 bd
       -0.1965704 -0.18972188 -0.07722571 -0.060015507
000050 d9 0f 0b bf 84 2c ed 3e 5d 3b 8b be 10 70 a3 bd
       -0.54321057 0.46323025 -0.27193728 -0.079803586
000060 42 66 99 bd 9f 66 a6 bd 47 96 86 be 65 4e 75 bd
       -0.07490207 -0.08125042 -0.26286528 -0.059889216
000070 f3 58 c8 be 7b 12 b0 bd 60 b4 82 be bf 54 71 be
       -0.39130363 -0.08597275 -0.2552824 -0.23567484
000080 db 88 19 bb a9 ba 45 3e db 7f 24 be 48 90 75 bd
       -0.002342752 0.19309486 -0.16064398 -0.05995205
000090 3a df d9 bd eb 35 93 bd 4f 1e 38 be 59 cb 84 bd
       -0.1063828 -0.071880184 -0.17980312 -0.06484098
0000a0 c6 84 a1 bd c9 47 bf bd 57 b9 66 be 2b 3b 61 3e
       -0.07886653 -0.09339864 -0.22531639 0.21995227

sequential_11_1/dense_33_1/Add/ReadVariableOp f4 [88]
000000 46 2c 59 3e 29 cc f7 bd 19 11 17 be e3 c8 e5 bd
       0.21208295 -0.12099487 -0.14752616 -0.11219957
000010 56 96 f7 3d aa 2d bb bd 39 e3 7a bd 7f 01 b5 bd
       0.12089221 -0.09139569 -0.061251853 -0.08838176
000020 7e eb 06 be c3 94 05 be af a3 04 be c4 ab 94 3d
       -0.1317577 -0.1304503 -0.12953065 0.07259324
000030 0a 26 a8 bc ef 47 4a bd 8c a4 5c be a6 53 04 bd
       -0.020525951 -0.049385007 -0.21547145 -0.032306336
000040 c2 32 05 be f0 0f 62 bd 0e b9 ce 3d fa 17 88 be
       -0.13007644 -0.05519098 0.1009389 -0.26580793
000050 50 50 01 be c0 7c 41 bd b0 4b d0 3a 23 e7 1e bd
       -0.12628293 -0.04723811 0.0015891697 -0.038794648
000060 23 97 83 3e 87 44 46 be 48 8d 29 bd 1a af c4 bb
       0.25701246 -0.19362079 -0.041394502 -0.006002319
000070 b7 9c 2a be 56 03 92 3c 15 1b 9d bd 40 59 b0 bd
       -0.16661344 0.017823856 -0.07671181 -0.08610773
000080 a4 49 cc bd 78 b3 1f 3e c6 7b 32 be ce 1b 68 bd
       -0.09974983 0.15595806 -0.17430028 -0.05666714
000090 6a 02 13 be ee d5 c5 3b 8d 94 e6 bd 16 fe 13 bd
       -0.1435639 0.0060374653 -0.112588026 -0.036130987
0000a0 7b 87 46 3c d7 2d 9d 3e 4f d2 16 be 2b 2f d3 bd
       0.012117262 0.30699036 -0.14728664 -0.10311731
0000b0 46 95 60 be ca 17 11 be bf df e2 3b 95 6c 08 3c
       -0.21931943 -0.14169231 0.0069236453 0.008326669
0000c0 39 a6 5d 3d b4 64 13 be 0f 67 80 bd a6 be c8 bc
       0.0541136 -0.14393884 -0.06269657 -0.02450497
0000d0 ec 12 0a be cc b1 29 be f8 78 28 bc 0e a1 80 bd
       -0.1348378 -0.1657173 -0.010282747 -0.06280719
0000e0 79 45 02 be 03 e7 c3 3e a6 c2 e5 bd 78 7f 33 be
       -0.12721814 0.38262185 -0.11218767 -0.17529094
0000f0 37 b7 9a bd 5b 7a 1c be 92 ea 7a 3d 95 93 c4 bd
       -0.07554477 -0.1528105 0.06125886 -0.095984615
000100 39 11 d0 3d ba 66 0c 3b c1 6c 05 be c3 31 92 3d
       0.10159535 0.0021423534 -0.13029768 0.071383975
000110 f6 85 42 bd c7 17 1f be 77 ab da bd 76 ec e7 bd
       -0.047491036 -0.15536414 -0.106772356 -0.11324398
000120 02 85 84 3e a4 bf 4f 3d ae 6d 3b 3e 0d 73 92 bd
       0.25882727 0.050719872 0.18303558 -0.071508504
000130 a0 62 9c 3e 2a c7 c4 bd 1d 8a 03 3f f4 89 0f bc
       0.30543995 -0.096083 0.5138262 -0.008760918
000140 2d 30 43 be 37 41 f1 bd 75 0e 08 3e 4c 35 b5 bd
       -0.19061346 -0.11780017 0.13286765 -0.08848056
000150 94 92 f7 bc 31 81 89 be f0 11 f0 bd de ee 37 be
       -0.030221261 -0.26856378 -0.11722171 -0.17962214

sequential_11_1/dense_33_1/MatMul f4 [88, 22]
000000 a9 b8 38 3e 44 d7 41 3f 2d e0 90 be 39 9c 73 be
       0.18039192 0.75719094 -0.28296033 -0.23790063
000010 e7 f6 04 3f e6 1f 17 3f 7b 8c a0 3e 8b f2 fc be
       0.51939243 0.5903305 0.31357178 -0.49403796
000020 34 63 2d 3f d7 6d 1c 3f 55 ff 36 bf 44 07 b6 be
       0.67729497 0.611051 -0.71483356 -0.35552418
000030 cf d1 2c be 33 52 e6 3e 90 14 e4 bd 83 5e 23 3f
       -0.1687691 0.44984588 -0.111367345 0.6381609
000040 61 4e 2d bf 65 7e 81 3f 23 bb 45 bf f1 f7 08 bf
       -0.6769772 1.0116698 -0.7723867 -0.5350333
000050 0b 31 88 bf cd 12 3d be fc 96 90 be 27 2a 08 be
       -1.0639967 -0.18464203 -0.28240192 -0.1329733
000060 f3 be 9e 3e 5b 07 4c 3e 52 90 b4 3e 57 a9 1d 3f
       0.31005058 0.19924681 0.35266358 0.6158652
000070 80 44 8d bf d1 b6 16 3f 3b f4 6d 3f 9e 9d 09 3f
       -1.103653 0.58872706 0.9295079 0.5375613
000080 7c bc 8a 3d 1b 10 45 3e 16 4a 88 3e 6a b7 7d 3f
       0.06774232 0.19244425 0.26619023 0.9910799
000090 cb c3 3f 3e d5 2d 0e 3f bc b1 b9 3e c5 8c 5a 3f
       0.18727033 0.55538684 0.36268413 0.8537105
0000a0 88 48 41 bc 6d 98 92 3f 0c 0a dd 3e 18 a7 d1 3e
       -0.011797078 1.1452767 0.43171728 0.40947795
0000b0 b9 d7 19 be 45 8a 1f be ff 87 ba be c9 6a 46 3e
       -0.15023698 -0.1558009 -0.36431882 0.19376673
0000c0 71 bd 98 3e f6 b7 ea 3e ef 93 cd 3e e1 50 19 3f
       0.29832032 0.45843476 0.40151927 0.59889036
0000d0 a8 de 13 3f 09 48 12 3f fa 90 e0 bc 31 6d 41 3f
       0.5776162 0.57141167 -0.02741288 0.7555724
0000e0 c3 63 ae 3e 0a fa c8 3e 94 6f 85 3e 51 99 a4 3e
       0.34060487 0.39253265 0.2606169 0.3214822
0000f0 da 18 8c 3f 2a d9 0e 3f 02 1b 89 3e 1b 8b fb be
       1.0945084 0.55800116 0.26778418 -0.49129567
000100 f2 25 f8 3e 47 99 e4 3e 08 fa 99 be f3 7d c8 3e
       0.4846645 0.4464819 -0.3007357 0.39158592
000110 86 82 b7 bf 42 ee 81 3e 26 7e 91 3e 31 e9 bd 3d
       -1.4336708 0.2537709 0.28416556 0.09272993
000120 b8 40 99 3e d9 70 21 3e 8f e1 cf 3f 69 33 23 bf
       0.2993219 0.15765704 1.624071 -0.6375032
000130 87 a2 a7 be a3 7a de bf 69 b9 a6 3e 56 af 35 3f
       -0.32741186 -1.7381176 0.32563332 0.70970666
000140 95 19 60 3f 75 b2 e7 bf 03 26 1e bf 94 51 e8 be
       0.87539035 -1.8101336 -0.6177675 -0.4537474
000150 92 85 83 3e 14 18 1e bf f9 30 d2 3f ec 65 9a 3e
       0.25687844 -0.6175549 1.6421195 0.30155885
000160 38 c6 c8 bc 7e d0 56 3f d7 3b 92 3e 74 8b 71 bf
       -0.02450858 0.83911884 0.2856128 -0.94353414
000170 98 58 32 bf 4f 5d 14 3f c1 6e b3 bc 67 d2 7d 3d
       -0.69666433 0.5795488 -0.021903398 0.061968233
000180 ae f4 d5 3e ac b5 04 3f 69 57 04 3f cc ab 8d 3d
       0.41788238 0.5183971 0.5169588 0.06917533
000190 56 27 66 bf 2a 0e 5a be 61 45 da be d8 0c 04 3c
       -0.8990377 -0.21294466 -0.42631057 0.008059703
0001a0 be d1 50 3e 78 96 02 3f 33 64 c1 bf ae 71 2c 3f
       0.2039251 0.5101085 -1.5108703 0.6736096
0001b0 d6 e7 d0 3e ce cc d0 bf 2a f5 90 bf ee 7d 24 3d
       0.40801877 -1.6312501 -1.1324818 0.04015916
0001c0 6b 5e 14 3f d3 3d 59 be ac d4 41 3f 24 a4 96 bf
       0.5795657 -0.2121499 0.75715137 -1.1768842
0001d0 9e e8 20 be fa b5 79 3f 65 80 73 3f f9 17 0e be
       -0.15713736 0.975433 0.9511779 -0.13876332
0001e0 40 cc 82 3e 6c 33 28 3f 40 8b 93 be ad b0 fc 3e
       0.25546455 0.65703464 -0.28817177 0.49353543
0001f0 dc 2b 5c 3f 3c 18 b4 bf 27 14 12 bf 94 2c b6 3f
       0.86004424 -1.4069896 -0.57062 1.4232354
000200 e8 9a 95 be ec bd d3 3f f8 8d 04 3f 79 82 d0 3e
       -0.29219747 1.6542335 0.5177913 0.40724543
000210 5f 61 66 3e b8 c7 15 3e 45 c5 82 3e 18 18 b2 bf
       0.22498082 0.14626968 0.2554113 -1.3913603
000220 45 b6 a0 3d a9 38 71 bd f8 7a 89 3e 00 92 4b 3c
       0.07847265 -0.058891926 0.2685163 0.012424946
000230 4a 80 e9 3e 14 40 29 3f 64 52 45 3f 3a 4e f5 3e
       0.4560569 0.661134 0.77078843 0.47911245
000240 1d 44 cf 3e d2 79 15 3f ca e8 ff 3e 65 af 0b 3f
       0.40481654 0.5838901 0.4998229 0.54564506
000250 33 98 87 3f bd e1 8b 3f ca a5 f0 bd be 18 63 3f
       1.0593323 1.0928265 -0.11750372 0.8870963
000260 46 50 56 3f f5 9b 65 bf a1 6f 3c be b7 39 94 be
       0.8371624 -0.89691097 -0.18401958 -0.28950283
000270 f0 68 20 be 2b 87 49 be 2f a1 6b be 22 04 87 bd
       -0.1566503 -0.19680469 -0.23010705 -0.06592585
000280 0d 9a 34 3d d4 43 d4 bc 1f c9 de 3d 94 3d 5e bc
       0.044092227 -0.02591125 0.108782046 -0.013564486
000290 8e 80 4e be c9 b0 6c be 72 d2 46 be 70 4d 1c be
       -0.20166227 -0.23114313 -0.19416216 -0.15263915
0002a0 fa 10 9f 3d bf 58 2d be 6d 1b 28 be 31 a4 ec bd
       0.0776691 -0.16928385 -0.16416712 -0.115547545
0002b0 31 3a 66 be 55 4c e9 3d 37 b5 35 be 8e a2 48 be
       -0.22483136 0.11391512 -0.17744909 -0.1959326
0002c0 02 10 32 be f5 20 0c bf d3 36 b4 3e 46 81 1b be
       -0.17388919 -0.5473779 0.35198078 -0.15186033
0002d0 8f 3b 3a 3f 1e 6b 60 3f 19 e8 af 3e d4 86 b0 be
       0.7274713 0.8766345 0.34356764 -0.34477866
0002e0 25 5a 44 3f a7 21 13 3f ee 66 89 3e 13 12 ee 3d
       0.7670005 0.57473224 0.26836342 0.11624541
0002f0 5f 04 b5 3e a2 31 57 3e e6 10 75 3e 0f 50 35 3f
       0.35354897 0.21015027 0.23932227 0.70825285
000300 2f 4d 91 3e 91 b4 c6 3e 00 03 04 3f 3d b2 2e be
       0.283792 0.38809636 0.5156708 -0.1706018
000310 86 1e b4 3e f3 fe fa be 93 c8 e4 3e c5 65 34 bd
       0.35179538 -0.49022636 0.44684276 -0.044042367
000320 41 8a 4f bf 26 40 61 be 96 87 05 3f 61 e7 1a 3f
       -0.81070334 -0.21997127 0.5216001 0.60509306
000330 84 aa 9a 3f 72 c5 c5 bd 65 28 e5 3e c6 e1 16 3e
       1.2083287 -0.096568 0.4475738 0.14734563
000340 51 6b 92 3f 77 08 eb 3d e9 9a 8b 3e fe 6f 45 3f
       1.1439 0.11476224 0.27266625 0.7712401
000350 18 25 92 3e c2 d3 1f 3f 88 5a 83 3e 59 52 85 3d
       0.28543925 0.6243249 0.25655007 0.06509847
000360 e6 c3 a3 3f 77 72 0f 3f 01 dd 0b 3f b9 a7 2a 3f
       1.2794158 0.56034034 0.546341 0.66662174
000370 eb 93 74 bf 3a cc c1 3e 19 4f 29 3f d5 d0 00 bf
       -0.95538205 0.37851125 0.6613632 -0.5031865
000380 7d 94 9d 3e 7e 7d 40 be 44 6f e8 3e 1c b1 d7 bd
       0.3077735 -0.18797871 0.4539739 -0.10531828
000390 06 d7 0d 3f f5 69 d6 bf 40 17 b0 3f 04 f7 80 bc
       0.55406225 -1.6751086 1.3757095 -0.015742786
0003a0 b0 72 58 3f 55 2a aa 3f 6e c8 60 3f 7e b1 4b bf
       0.8455 1.3294169 0.8780583 -0.79567707
0003b0 63 78 9b bc 0a ac e7 3d 06 f3 86 3f 21 af c2 be
       -0.018978303 0.11312111 1.0542915 -0.38024238
0003c0 22 37 5c 3f 93 e7 10 be 85 f6 c1 be 86 7c 11 3f
       0.86021626 -0.14150839 -0.37883392 0.5683063
0003d0 7e f3 7d 3e e0 cf 88 bf 2f f5 dc 3e 42 17 3e bf
       0.24799916 -1.0688438 0.4315581 -0.7425424
0003e0 1f 69 a8 3f 16 00 00 bf e9 78 53 bd 6b 25 28 bf
       1.315708 -0.5000013 -0.05162898 -0.65682095
0003f0 86 1e 67 3f d7 01 5f be 2e 80 d0 bf 30 8f 13 be
       0.9028095 -0.21778046 -1.6289117 -0.1441009
